…
Input to operations:  KerasTensor(type_spec=TensorSpec(shape=(None, 2048), dtype=tf.float32, name=None), name='dropout/Identity:0', description="created by layer 'dropout'")
Output of flow stored:  final_dense
Model built successfully.
Model: "model"
_________________________________________________________________
 Layer (type)                Output Shape              Param #   
=================================================================
 inputs (InputLayer)         [(None, 64, 64, 11)]      0         
                                                                 
 random_rotation (RandomRota  (None, 64, 64, 11)       0         
 tion)                                                           
                                                                 
 random_zoom (RandomZoom)    (None, 64, 64, 11)        0         
                                                                 
 conv2d (Conv2D)             (None, 64, 64, 32)        17280     
                                                                 
 max_pooling2d (MaxPooling2D  (None, 32, 32, 32)       0         
 )                                                               
                                                                 
 batch_normalization (BatchN  (None, 32, 32, 32)       128       
 ormalization)                                                   
                                                                 
 conv2d_1 (Conv2D)           (None, 32, 32, 64)        100416    
                                                                 
 max_pooling2d_1 (MaxPooling  (None, 16, 16, 64)       0         
 2D)                                                             
                                                                 
 batch_normalization_1 (Batc  (None, 16, 16, 64)       256       
 hNormalization)                                                 
                                                                 
 conv2d_2 (Conv2D)           (None, 16, 16, 128)       401536    
                                                                 
 max_pooling2d_2 (MaxPooling  (None, 8, 8, 128)        0         
 2D)                                                             
                                                                 
 conv2d_3 (Conv2D)           (None, 8, 8, 256)         1605888   
                                                                 
 conv2d_4 (Conv2D)           (None, 2, 2, 512)         6423040   
                                                                 
 batch_normalization_2 (Batc  (None, 2, 2, 512)        2048      
 hNormalization)                                                 
                                                                 
 flatten (Flatten)           (None, 2048)              0         
                                                                 
 dropout (Dropout)           (None, 2048)              0         
                                                                 
 dense (Dense)               (None, 512)               1049088   
                                                                 
 dense_1 (Dense)             (None, 312)               160056    
                                                                 
 dense_2 (Dense)             (None, 1)                 313       
                                                                 
=================================================================
Total params: 9,760,049
Trainable params: 9,758,833
Non-trainable params: 1,216
_________________________________________________________________

Epoch 1: LearningRateScheduler setting learning rate to 0.001.
Epoch 1/500
WARNING:absl:Found untraced functions such as _jit_compiled_convolution_op, _jit_compiled_convolution_op, _jit_compiled_convolution_op, _jit_compiled_convolution_op, _jit_compiled_convolution_op while saving (showing 5 of 5). These functions will not be directly callable after loading.
…
Input to operations:  KerasTensor(type_spec=TensorSpec(shape=(None, 2048), dtype=tf.float32, name=None), name='dropout/Identity:0', description="created by layer 'dropout'")
Output of flow stored:  final_dense
Model built successfully.
Model: "model"
_________________________________________________________________
 Layer (type)                Output Shape              Param #   
=================================================================
 inputs (InputLayer)         [(None, 64, 64, 7)]       0         
                                                                 
 random_rotation (RandomRota  (None, 64, 64, 7)        0         
 tion)                                                           
                                                                 
 random_zoom (RandomZoom)    (None, 64, 64, 7)         0         
                                                                 
 conv2d (Conv2D)             (None, 64, 64, 32)        11008     
                                                                 
 max_pooling2d (MaxPooling2D  (None, 32, 32, 32)       0         
 )                                                               
                                                                 
 batch_normalization (BatchN  (None, 32, 32, 32)       128       
 ormalization)                                                   
                                                                 
 conv2d_1 (Conv2D)           (None, 32, 32, 64)        100416    
                                                                 
 max_pooling2d_1 (MaxPooling  (None, 16, 16, 64)       0         
 2D)                                                             
                                                                 
 batch_normalization_1 (Batc  (None, 16, 16, 64)       256       
 hNormalization)                                                 
                                                                 
 conv2d_2 (Conv2D)           (None, 16, 16, 128)       401536    
                                                                 
 max_pooling2d_2 (MaxPooling  (None, 8, 8, 128)        0         
 2D)                                                             
                                                                 
 conv2d_3 (Conv2D)           (None, 8, 8, 256)         1605888   
                                                                 
 conv2d_4 (Conv2D)           (None, 2, 2, 512)         6423040   
                                                                 
 batch_normalization_2 (Batc  (None, 2, 2, 512)        2048      
 hNormalization)                                                 
                                                                 
 flatten (Flatten)           (None, 2048)              0         
                                                                 
 dropout (Dropout)           (None, 2048)              0         
                                                                 
 dense (Dense)               (None, 512)               1049088   
                                                                 
 dense_1 (Dense)             (None, 312)               160056    
                                                                 
 dense_2 (Dense)             (None, 1)                 313       
                                                                 
=================================================================
Total params: 9,753,777
Trainable params: 9,752,561
Non-trainable params: 1,216
_________________________________________________________________

Epoch 1: LearningRateScheduler setting learning rate to 0.001.
Epoch 1/500
WARNING:absl:Found untraced functions such as _jit_compiled_convolution_op, _jit_compiled_convolution_op, _jit_compiled_convolution_op, _jit_compiled_convolution_op, _jit_compiled_convolution_op while saving (showing 5 of 5). These functions will not be directly callable after loading.
…
Input to operations:  KerasTensor(type_spec=TensorSpec(shape=(None, 2048), dtype=tf.float32, name=None), name='dropout/Identity:0', description="created by layer 'dropout'")
Output of flow stored:  final_dense
Model built successfully.
Model: "model"
_________________________________________________________________
 Layer (type)                Output Shape              Param #   
=================================================================
 inputs (InputLayer)         [(None, 64, 64, 12)]      0         
                                                                 
 random_rotation (RandomRota  (None, 64, 64, 12)       0         
 tion)                                                           
                                                                 
 random_zoom (RandomZoom)    (None, 64, 64, 12)        0         
                                                                 
 conv2d (Conv2D)             (None, 64, 64, 32)        18848     
                                                                 
 max_pooling2d (MaxPooling2D  (None, 32, 32, 32)       0         
 )                                                               
                                                                 
 batch_normalization (BatchN  (None, 32, 32, 32)       128       
 ormalization)                                                   
                                                                 
 conv2d_1 (Conv2D)           (None, 32, 32, 64)        100416    
                                                                 
 max_pooling2d_1 (MaxPooling  (None, 16, 16, 64)       0         
 2D)                                                             
                                                                 
 batch_normalization_1 (Batc  (None, 16, 16, 64)       256       
 hNormalization)                                                 
                                                                 
 conv2d_2 (Conv2D)           (None, 16, 16, 128)       401536    
                                                                 
 max_pooling2d_2 (MaxPooling  (None, 8, 8, 128)        0         
 2D)                                                             
                                                                 
 conv2d_3 (Conv2D)           (None, 8, 8, 256)         1605888   
                                                                 
 conv2d_4 (Conv2D)           (None, 2, 2, 512)         6423040   
                                                                 
 batch_normalization_2 (Batc  (None, 2, 2, 512)        2048      
 hNormalization)                                                 
                                                                 
 flatten (Flatten)           (None, 2048)              0         
                                                                 
 dropout (Dropout)           (None, 2048)              0         
                                                                 
 dense (Dense)               (None, 512)               1049088   
                                                                 
 dense_1 (Dense)             (None, 312)               160056    
                                                                 
 dense_2 (Dense)             (None, 1)                 313       
                                                                 
=================================================================
Total params: 9,761,617
Trainable params: 9,760,401
Non-trainable params: 1,216
_________________________________________________________________

Epoch 1: LearningRateScheduler setting learning rate to 0.001.
Epoch 1/500
WARNING:absl:Found untraced functions such as _jit_compiled_convolution_op, _jit_compiled_convolution_op, _jit_compiled_convolution_op, _jit_compiled_convolution_op, _jit_compiled_convolution_op while saving (showing 5 of 5). These functions will not be directly callable after loading.
…
Input to operations:  KerasTensor(type_spec=TensorSpec(shape=(None, 2048), dtype=tf.float32, name=None), name='dropout/Identity:0', description="created by layer 'dropout'")
Output of flow stored:  final_dense
Model built successfully.
Model: "model"
_________________________________________________________________
 Layer (type)                Output Shape              Param #   
=================================================================
 inputs (InputLayer)         [(None, 64, 64, 10)]      0         
                                                                 
 random_rotation (RandomRota  (None, 64, 64, 10)       0         
 tion)                                                           
                                                                 
 random_zoom (RandomZoom)    (None, 64, 64, 10)        0         
                                                                 
 conv2d (Conv2D)             (None, 64, 64, 32)        15712     
                                                                 
 max_pooling2d (MaxPooling2D  (None, 32, 32, 32)       0         
 )                                                               
                                                                 
 batch_normalization (BatchN  (None, 32, 32, 32)       128       
 ormalization)                                                   
                                                                 
 conv2d_1 (Conv2D)           (None, 32, 32, 64)        100416    
                                                                 
 max_pooling2d_1 (MaxPooling  (None, 16, 16, 64)       0         
 2D)                                                             
                                                                 
 batch_normalization_1 (Batc  (None, 16, 16, 64)       256       
 hNormalization)                                                 
                                                                 
 conv2d_2 (Conv2D)           (None, 16, 16, 128)       401536    
                                                                 
 max_pooling2d_2 (MaxPooling  (None, 8, 8, 128)        0         
 2D)                                                             
                                                                 
 conv2d_3 (Conv2D)           (None, 8, 8, 256)         1605888   
                                                                 
 conv2d_4 (Conv2D)           (None, 2, 2, 512)         6423040   
                                                                 
 batch_normalization_2 (Batc  (None, 2, 2, 512)        2048      
 hNormalization)                                                 
                                                                 
 flatten (Flatten)           (None, 2048)              0         
                                                                 
 dropout (Dropout)           (None, 2048)              0         
                                                                 
 dense (Dense)               (None, 512)               1049088   
                                                                 
 dense_1 (Dense)             (None, 312)               160056    
                                                                 
 dense_2 (Dense)             (None, 1)                 313       
                                                                 
=================================================================
Total params: 9,758,481
Trainable params: 9,757,265
Non-trainable params: 1,216
_________________________________________________________________

Epoch 1: LearningRateScheduler setting learning rate to 0.001.
Epoch 1/500
WARNING:absl:Found untraced functions such as _jit_compiled_convolution_op, _jit_compiled_convolution_op, _jit_compiled_convolution_op, _jit_compiled_convolution_op, _jit_compiled_convolution_op while saving (showing 5 of 5). These functions will not be directly callable after loading.
…
