…
Input shape of the X features data:  (24300, 38, 30, 5)
Input shape of the y label data:  (24300,)
Number of input channel extracted from X is:  5
--> Running configuration:  /N/slate/kmluong/Training_data/Split/model/testmodel
Model: "my_functional_model"
_________________________________________________________________
 Layer (type)                Output Shape              Param #   
=================================================================
 input_1 (InputLayer)        [(None, 64, 64, 5)]       0         
                                                                 
 sequential (Sequential)     (None, 64, 64, 5)         0         
                                                                 
 my_conv2d_11 (Conv2D)       (None, 64, 64, 32)        1472      
                                                                 
 my_pooling_1 (MaxPooling2D)  (None, 32, 32, 32)       0         
                                                                 
 my_conv2d_2 (Conv2D)        (None, 30, 30, 64)        18496     
                                                                 
 my_pooling_2 (MaxPooling2D)  (None, 15, 15, 64)       0         
                                                                 
 my_conv2d_3 (Conv2D)        (None, 13, 13, 64)        36928     
                                                                 
 my_pooling_3 (MaxPooling2D)  (None, 6, 6, 64)         0         
                                                                 
 my_flatten (Flatten)        (None, 2304)              0         
                                                                 
 dropout (Dropout)           (None, 2304)              0         
                                                                 
 dense (Dense)               (None, 32)                73760     
                                                                 
 dense_1 (Dense)             (None, 32)                1056      
                                                                 
 my_dense (Dense)            (None, 1)                 33        
                                                                 
=================================================================
Total params: 131,745
Trainable params: 131,745
Non-trainable params: 0
_________________________________________________________________
Epoch 1/200
 1/43 [..............................] - ETA: 12:47 - loss: 51.9989 - MAE: 52.4989 - root_mean_squared_error
…
