…
Input shape of the y label data:  (24300, 3)
Number of input channel extracted from X is:  5
Finish normalization...
--> Running configuration:  /N/slate/kmluong/Training_data/Split/model/VMAX-3-conv-32-layer-0-dense.model
Model: "my_functional_model"
_________________________________________________________________
 Layer (type)                Output Shape              Param #   
=================================================================
 input_1 (InputLayer)        [(None, 64, 64, 5)]       0         
                                                                 
 sequential (Sequential)     (None, 64, 64, 5)         0         
                                                                 
 my_conv2d_1 (Conv2D)        (None, 62, 62, 32)        1472      
                                                                 
 my_pooling_1 (MaxPooling2D  (None, 31, 31, 32)        0         
 )                                                               
                                                                 
 my_conv2d_2 (Conv2D)        (None, 29, 29, 64)        18496     
                                                                 
 my_pooling_2 (MaxPooling2D  (None, 14, 14, 64)        0         
 )                                                               
                                                                 
 my_conv2d_3 (Conv2D)        (None, 12, 12, 128)       73856     
                                                                 
 my_pooling_3 (MaxPooling2D  (None, 6, 6, 128)         0         
 )                                                               
                                                                 
 my_flatten (Flatten)        (None, 4608)              0         
                                                                 
 dropout (Dropout)           (None, 4608)              0         
                                                                 
 my_dense (Dense)            (None, 1)                 4609      
                                                                 
=================================================================
Total params: 98433 (384.50 KB)
Trainable params: 98433 (384.50 KB)
Non-trainable params: 0 (0.00 Byte)
_________________________________________________________________
Epoch 1/30
 1/43 [..............................] - ETA: 2:23 - loss: 53.8782 - r2_score: 
…
