…
Input shape of the X features data:  (24300, 38, 30, 5)
Input shape of the y label data:  (24300,)
Number of input channel extracted from X is:  5
--> Running configuration:  /N/slate/kmluong/Training_data/Split/model/huber-7agn3-conv-32-layer-2-dense.model
Model: "my_functional_model"
_________________________________________________________________
 Layer (type)                Output Shape              Param #   
=================================================================
 input_1 (InputLayer)        [(None, 64, 64, 5)]       0         
                                                                 
 sequential (Sequential)     (None, 64, 64, 5)         0         
                                                                 
 my_conv2d_11 (Conv2D)       (None, 64, 64, 32)        7872      
                                                                 
 my_pooling_1 (MaxPooling2D)  (None, 32, 32, 32)       0         
                                                                 
 batch_normalization (BatchN  (None, 32, 32, 32)       128       
 ormalization)                                                   
                                                                 
 my_conv2d_2 (Conv2D)        (None, 30, 30, 64)        18496     
                                                                 
 my_pooling_2 (MaxPooling2D)  (None, 15, 15, 64)       0         
                                                                 
 batch_normalization_1 (Batc  (None, 15, 15, 64)       256       
 hNormalization)                                                 
                                                                 
 my_conv2d_3 (Conv2D)        (None, 13, 13, 64)        36928     
                                                                 
 my_conv2d_31 (Conv2D)       (None, 11, 11, 64)        36928     
                                                                 
 my_pooling_3 (MaxPooling2D)  (None, 5, 5, 64)         0         
                                                                 
 batch_normalization_2 (Batc  (None, 5, 5, 64)         256       
 hNormalization)                                                 
                                                                 
 my_conv2d_4 (Conv2D)        (None, 5, 5, 64)          36928     
                                                                 
 my_conv2d_5 (Conv2D)        (None, 3, 3, 64)          36928     
                                                                 
 batch_normalization_3 (Batc  (None, 3, 3, 64)         256       
 hNormalization)                                                 
                                                                 
 my_flatten (Flatten)        (None, 576)               0         
                                                                 
 dropout (Dropout)           (None, 576)               0         
                                                                 
 dense (Dense)               (None, 32)                18464     
                                                                 
 dense_1 (Dense)             (None, 32)                1056      
                                                                 
 my_dense (Dense)            (None, 1)                 33        
                                                                 
=================================================================
Total params: 194,529
Trainable params: 194,081
Non-trainable params: 448
_________________________________________________________________
Epoch 1/1500
WARNING:absl:Found untraced functions such as _jit_compiled_convolution_op, _jit_compiled_convolution_op, _jit_compiled_convolution_op, _jit_compiled_convolution_op, _jit_compiled_convolution_op while saving (showing 5 of 6). These functions will not be directly callable after loading.
…
