…
Input shape of the X features data:  (23021, 38, 30, 13)
Input shape of the y label data:  (23021,)
Number of input channel extracted from X is:  13
--> Running configuration:  /N/slate/kmluong/Training_data/Split/model/13testmodel3
Model: "my_functional_model"
_________________________________________________________________
 Layer (type)                Output Shape              Param #   
=================================================================
 input_1 (InputLayer)        [(None, 64, 64, 13)]      0         
                                                                 
 sequential (Sequential)     (None, 64, 64, 13)        0         
                                                                 
 my_conv2d_11 (Conv2D)       (None, 64, 64, 256)       1201664   
                                                                 
 my_pooling_1 (MaxPooling2D)  (None, 32, 32, 256)      0         
                                                                 
 batch_normalization (BatchN  (None, 32, 32, 256)      1024      
 ormalization)                                                   
                                                                 
 my_conv2d_2 (Conv2D)        (None, 32, 32, 128)       11829376  
                                                                 
 my_pooling_2 (MaxPooling2D)  (None, 16, 16, 128)      0         
                                                                 
 batch_normalization_1 (Batc  (None, 16, 16, 128)      512       
 hNormalization)                                                 
                                                                 
 my_conv2d_32 (Conv2D)       (None, 16, 16, 256)       819456    
                                                                 
 my_pooling_3 (MaxPooling2D)  (None, 8, 8, 256)        0         
                                                                 
 my_conv2d_4 (Conv2D)        (None, 8, 8, 512)         1180160   
                                                                 
 my_conv2d_5 (Conv2D)        (None, 6, 6, 512)         2359808   
                                                                 
 batch_normalization_2 (Batc  (None, 6, 6, 512)        2048      
 hNormalization)                                                 
                                                                 
 my_flatten (Flatten)        (None, 18432)             0         
                                                                 
 dropout (Dropout)           (None, 18432)             0         
                                                                 
 dense (Dense)               (None, 32)                589856    
                                                                 
 dense_1 (Dense)             (None, 32)                1056      
                                                                 
 my_dense (Dense)            (None, 1)                 33        
                                                                 
=================================================================
Total params: 17,984,993
Trainable params: 17,983,201
Non-trainable params: 1,792
_________________________________________________________________

Epoch 1: LearningRateScheduler setting learning rate to 0.001.
Epoch 1/1000
WARNING:absl:Found untraced functions such as _jit_compiled_convolution_op, _jit_compiled_convolution_op, _jit_compiled_convolution_op, _jit_compiled_convolution_op, _jit_compiled_convolution_op while saving (showing 5 of 5). These functions will not be directly callable after loading.
…
