…
Input shape of the X features data:  (23021, 38, 30, 9)
Input shape of the y label data:  (23021,)
Number of input channel extracted from X is:  9
--> Running configuration:  /N/slate/kmluong/Training_data/Split/model/9testmodel11
Model: "my_functional_model"
_________________________________________________________________
 Layer (type)                Output Shape              Param #   
=================================================================
 input_1 (InputLayer)        [(None, 64, 64, 9)]       0         
                                                                 
 sequential (Sequential)     (None, 64, 64, 9)         0         
                                                                 
 my_conv2d_11 (Conv2D)       (None, 64, 64, 98)        198548    
                                                                 
 my_pooling_1 (MaxPooling2D)  (None, 32, 32, 98)       0         
                                                                 
 batch_normalization (BatchN  (None, 32, 32, 98)       392       
 ormalization)                                                   
                                                                 
 my_conv2d_2 (Conv2D)        (None, 32, 32, 64)        1411264   
                                                                 
 my_pooling_2 (MaxPooling2D)  (None, 16, 16, 64)       0         
                                                                 
 batch_normalization_1 (Batc  (None, 16, 16, 64)       256       
 hNormalization)                                                 
                                                                 
 my_conv2d_3 (Conv2D)        (None, 14, 14, 256)       147712    
                                                                 
 my_pooling_3 (MaxPooling2D)  (None, 7, 7, 256)        0         
                                                                 
 batch_normalization_2 (Batc  (None, 7, 7, 256)        1024      
 hNormalization)                                                 
                                                                 
 my_conv2d_4 (Conv2D)        (None, 7, 7, 512)         6423040   
                                                                 
 my_conv2d_5 (Conv2D)        (None, 7, 7, 512)         12845568  
                                                                 
 my_flatten (Flatten)        (None, 25088)             0         
                                                                 
 dropout (Dropout)           (None, 25088)             0         
                                                                 
 dense (Dense)               (None, 32)                802848    
                                                                 
 dense_1 (Dense)             (None, 32)                1056      
                                                                 
 my_dense (Dense)            (None, 1)                 33        
                                                                 
=================================================================
Total params: 21,831,741
Trainable params: 21,830,905
Non-trainable params: 836
_________________________________________________________________

Epoch 1: LearningRateScheduler setting learning rate to 0.001.
Epoch 1/1000
WARNING:absl:Found untraced functions such as _jit_compiled_convolution_op, _jit_compiled_convolution_op, _jit_compiled_convolution_op, _jit_compiled_convolution_op, _jit_compiled_convolution_op while saving (showing 5 of 5). These functions will not be directly callable after loading.
…
