…
Input shape of the X features data:  (23021, 38, 30, 9)
Input shape of the y label data:  (23021,)
Number of input channel extracted from X is:  9
--> Running configuration:  /N/slate/kmluong/Training_data/Split/model/9testmodel5
Model: "my_functional_model"
_________________________________________________________________
 Layer (type)                Output Shape              Param #   
=================================================================
 input_1 (InputLayer)        [(None, 64, 64, 9)]       0         
                                                                 
 sequential (Sequential)     (None, 64, 64, 9)         0         
                                                                 
 my_conv2d_11 (Conv2D)       (None, 64, 64, 96)        42432     
                                                                 
 my_pooling_1 (MaxPooling2D)  (None, 32, 32, 96)       0         
                                                                 
 batch_normalization (BatchN  (None, 32, 32, 96)       384       
 ormalization)                                                   
                                                                 
 my_conv2d_2 (Conv2D)        (None, 32, 32, 64)        301120    
                                                                 
 my_pooling_2 (MaxPooling2D)  (None, 16, 16, 64)       0         
                                                                 
 batch_normalization_1 (Batc  (None, 16, 16, 64)       256       
 hNormalization)                                                 
                                                                 
 my_conv2d_3 (Conv2D)        (None, 14, 14, 128)       73856     
                                                                 
 my_pooling_3 (MaxPooling2D)  (None, 7, 7, 128)        0         
                                                                 
 batch_normalization_2 (Batc  (None, 7, 7, 128)        512       
 hNormalization)                                                 
                                                                 
 my_conv2d_4 (Conv2D)        (None, 7, 7, 256)         295168    
                                                                 
 my_conv2d_5 (Conv2D)        (None, 7, 7, 256)         590080    
                                                                 
 my_flatten (Flatten)        (None, 12544)             0         
                                                                 
 dropout (Dropout)           (None, 12544)             0         
                                                                 
 dense (Dense)               (None, 32)                401440    
                                                                 
 dense_1 (Dense)             (None, 32)                1056      
                                                                 
 my_dense (Dense)            (None, 1)                 33        
                                                                 
=================================================================
Total params: 1,706,337
Trainable params: 1,705,761
Non-trainable params: 576
_________________________________________________________________

Epoch 1: LearningRateScheduler setting learning rate to 0.001.
Epoch 1/1000
WARNING:absl:Found untraced functions such as _jit_compiled_convolution_op, _jit_compiled_convolution_op, _jit_compiled_convolution_op, _jit_compiled_convolution_op, _jit_compiled_convolution_op while saving (showing 5 of 5). These functions will not be directly callable after loading.
…
