…
Input shape of the X features data:  (23021, 38, 30, 13)
Input shape of the y label data:  (23021,)
Number of input channel extracted from X is:  13
--> Running configuration:  /N/slate/kmluong/Training_data/Split/model/13testmodel1
Model: "my_functional_model"
_________________________________________________________________
 Layer (type)                Output Shape              Param #   
=================================================================
 input_1 (InputLayer)        [(None, 64, 64, 13)]      0         
                                                                 
 sequential (Sequential)     (None, 64, 64, 13)        0         
                                                                 
 my_conv2d_11 (Conv2D)       (None, 64, 64, 98)        62524     
                                                                 
 my_pooling_1 (MaxPooling2D)  (None, 32, 32, 98)       0         
                                                                 
 my_pooling_2 (MaxPooling2D)  (None, 16, 16, 98)       0         
                                                                 
 my_conv2d_3 (Conv2D)        (None, 14, 14, 256)       226048    
                                                                 
 my_pooling_3 (MaxPooling2D)  (None, 7, 7, 256)        0         
                                                                 
 my_conv2d_4 (Conv2D)        (None, 7, 7, 512)         3277312   
                                                                 
 my_conv2d_5 (Conv2D)        (None, 3, 3, 512)         6554112   
                                                                 
 my_flatten (Flatten)        (None, 4608)              0         
                                                                 
 dropout (Dropout)           (None, 4608)              0         
                                                                 
 dense (Dense)               (None, 32)                147488    
                                                                 
 dense_1 (Dense)             (None, 32)                1056      
                                                                 
 dense_2 (Dense)             (None, 32)                1056      
                                                                 
 my_dense (Dense)            (None, 1)                 33        
                                                                 
=================================================================
Total params: 10,269,629
Trainable params: 10,269,629
Non-trainable params: 0
_________________________________________________________________

Epoch 1: LearningRateScheduler setting learning rate to 0.001.
Epoch 1/1000
  1/140 [............................
…
