…
Input shape of the X features data:  (23021, 38, 30, 9)
Input shape of the y label data:  (23021,)
Number of input channel extracted from X is:  9
--> Running configuration:  /N/slate/kmluong/Training_data/Split/model/9testmodel
Model: "my_functional_model"
_________________________________________________________________
 Layer (type)                Output Shape              Param #   
=================================================================
 input_1 (InputLayer)        [(None, 64, 64, 9)]       0         
                                                                 
 sequential (Sequential)     (None, 64, 64, 9)         0         
                                                                 
 my_conv2d_11 (Conv2D)       (None, 64, 64, 96)        42432     
                                                                 
 my_pooling_1 (MaxPooling2D)  (None, 32, 32, 96)       0         
                                                                 
 my_conv2d_2 (Conv2D)        (None, 32, 32, 64)        301120    
                                                                 
 my_pooling_2 (MaxPooling2D)  (None, 16, 16, 64)       0         
                                                                 
 my_conv2d_3 (Conv2D)        (None, 14, 14, 128)       73856     
                                                                 
 my_pooling_3 (MaxPooling2D)  (None, 7, 7, 128)        0         
                                                                 
 my_conv2d_4 (Conv2D)        (None, 7, 7, 128)         147584    
                                                                 
 my_flatten (Flatten)        (None, 6272)              0         
                                                                 
 dropout (Dropout)           (None, 6272)              0         
                                                                 
 dense (Dense)               (None, 32)                200736    
                                                                 
 dense_1 (Dense)             (None, 32)                1056      
                                                                 
 my_dense (Dense)            (None, 1)                 33        
                                                                 
=================================================================
Total params: 766,817
Trainable params: 766,817
Non-trainable params: 0
_________________________________________________________________

Epoch 1: LearningRateScheduler setting learning rate to 0.001.
Epoch 1/200
 1/40 [..............................] - ETA
…
