…
Input shape of the X features data:  (22010, 52, 42, 13)
Input shape of the y label data:  (22010,)
Number of input channel extracted from X is:  13
--> Running configuration:  /N/project/Typhoon-deep-learning/output//exp_13features_25x25//model_VMAX13_25x25
Model: "my_functional_model"
_________________________________________________________________
 Layer (type)                Output Shape              Param #   
=================================================================
 input_1 (InputLayer)        [(None, 64, 64, 13)]      0         
                                                                 
 sequential (Sequential)     (None, 64, 64, 13)        0         
                                                                 
 my_conv2d_11 (Conv2D)       (None, 64, 64, 128)       374528    
                                                                 
 my_pooling_1 (MaxPooling2D)  (None, 32, 32, 128)      0         
                                                                 
 batch_normalization (BatchN  (None, 32, 32, 128)      512       
 ormalization)                                                   
                                                                 
 my_conv2d_2 (Conv2D)        (None, 32, 32, 64)        1843264   
                                                                 
 my_pooling_2 (MaxPooling2D)  (None, 16, 16, 64)       0         
                                                                 
 batch_normalization_1 (Batc  (None, 16, 16, 64)       256       
 hNormalization)                                                 
                                                                 
 my_conv2d_3 (Conv2D)        (None, 16, 16, 256)       1327360   
                                                                 
 my_pooling_3 (MaxPooling2D)  (None, 8, 8, 256)        0         
                                                                 
 my_conv2d_4 (Conv2D)        (None, 8, 8, 512)         3277312   
                                                                 
 my_conv2d_5 (Conv2D)        (None, 4, 4, 512)         6554112   
                                                                 
 batch_normalization_2 (Batc  (None, 4, 4, 512)        2048      
 hNormalization)                                                 
                                                                 
 my_flatten (Flatten)        (None, 8192)              0         
                                                                 
 dropout (Dropout)           (None, 8192)              0         
                                                                 
 dense (Dense)               (None, 512)               4194816   
                                                                 
 dense_1 (Dense)             (None, 312)               160056    
                                                                 
 my_dense (Dense)            (None, 1)                 313       
                                                                 
=================================================================
Total params: 17,734,577
Trainable params: 17,733,169
Non-trainable params: 1,408
_________________________________________________________________

Epoch 1: LearningRateScheduler setting learning rate to 0.001.
Epoch 1/1000
WARNING:absl:Found untraced functions such as _jit_compiled_convolution_op, _jit_compiled_convolution_op, _jit_compiled_convolution_op, _jit_compiled_convolution_op, _jit_compiled_convolution_op while saving (showing 5 of 5). These functions will not be directly callable after loading.
…
