…
Input shape of the y label data:  (25578,)
Number of input channel extracted from X is:  13
--> Running configuration:  /N/slate/kmluong/TC-net-cnn_workdir/Domain_data//exp_13features_18x18/kfold//model_VMAX13_18x18fold1
Model: "my_functional_model"
_________________________________________________________________
 Layer (type)                Output Shape              Param #   
=================================================================
 input_1 (InputLayer)        [(None, 64, 64, 13)]      0         
                                                                 
 sequential (Sequential)     (None, 64, 64, 13)        0         
                                                                 
 my_conv2d_11 (Conv2D)       (None, 64, 64, 32)        20416     
                                                                 
 my_pooling_1 (MaxPooling2D)  (None, 32, 32, 32)       0         
                                                                 
 batch_normalization (BatchN  (None, 32, 32, 32)       128       
 ormalization)                                                   
                                                                 
 my_conv2d_2 (Conv2D)        (None, 32, 32, 64)        100416    
                                                                 
 my_pooling_2 (MaxPooling2D)  (None, 16, 16, 64)       0         
                                                                 
 batch_normalization_1 (Batc  (None, 16, 16, 64)       256       
 hNormalization)                                                 
                                                                 
 my_conv2d_3 (Conv2D)        (None, 16, 16, 128)       401536    
                                                                 
 my_pooling_3 (MaxPooling2D)  (None, 8, 8, 128)        0         
                                                                 
 my_conv2d_4 (Conv2D)        (None, 8, 8, 256)         1605888   
                                                                 
 my_conv2d_5 (Conv2D)        (None, 2, 2, 512)         6423040   
                                                                 
 batch_normalization_2 (Batc  (None, 2, 2, 512)        2048      
 hNormalization)                                                 
                                                                 
 my_flatten (Flatten)        (None, 2048)              0         
                                                                 
 dropout (Dropout)           (None, 2048)              0         
                                                                 
 dense (Dense)               (None, 512)               1049088   
                                                                 
 dense_1 (Dense)             (None, 312)               160056    
                                                                 
 my_dense (Dense)            (None, 1)                 313       
                                                                 
=================================================================
Total params: 9,763,185
Trainable params: 9,761,969
Non-trainable params: 1,216
_________________________________________________________________

Epoch 1: LearningRateScheduler setting learning rate to 0.001.
Epoch 1/1000
WARNING:absl:Found untraced functions such as _jit_compiled_convolution_op, _jit_compiled_convolution_op, _jit_compiled_convolution_op, _jit_compiled_convolution_op, _jit_compiled_convolution_op while saving (showing 5 of 5). These functions will not be directly callable after loading.
…
